model.pt (torch_old, 5117 bytes, 9 tensors)

layer1.weight f4 [20, 12]
00000000: cbae 183e 76cb a83d 1578 753d e633 d43d
00000010: 6475 e23d c122 f6bf a53a c13f 41c7 88bf
00000020: 08a7 7240 5d6a 1fbe 4227 c43d 7087 a83c
00000030: fc41 f83d 1ee4 873e 0016 b13b 6aaf 083e
00000040: 1833 903e b737 32be 8036 58bd ecba e83d
00000050: 8c39 e93d e088 393e b605 173e 3d7a 4dbe
00000060: 9830 8cbe 18f4 09bd 7716 8cbe 62ce 2fbe
00000070: 77a9 01bf 6139 c73f f6d2 62bf 47e1 853f
00000080: 2997 e4bf b80c 0e3e b1c8 d43d 9b48 783e
00000090: be45 a6be 86ac 74be 2234 6a3e d8bd 793d
000000a0: e292 4ebe bf46 f93f 9196 8ebf ecba 1c3f
000000b0: 4f5e 01c0 8680 58be e0d5 02be 7931 3f3d
000000c0: 89d2 853c 80d8 dcbe facc 3dbd fc44 813d
000000d0: bae9 93be ee2b cb3f 26d1 5bbf 4dc3 6d3f
000000e0: e5dd e5bf 7ebc 68be 990d fb3d f9d7 993d
000000f0: 375e c23e 9a81 c03e 0cbe a7bd 7457 06be
00000100: 6b27 693e f956 9abf 3b3d 833f c62c 0abf
00000110: d43e e03f 5e73 293e 9717 8abd e3b9 4e3e
00000120: 460d cfbe 2139 523c af80 56bd d761 8abe
00000130: c41b 08bf 7ae1 c33f 5fa3 97bf 9d34 6f3f
00000140: 3bce 2ec0 76c0 f6bc f76e 633e e8be 7a3d
00000150: 0d8f b9be 87c6 a6bd b73f a23d cbe9 273d
00000160: 86fb 05bd 58e1 1140 4a61 b5bf bbb7 b93f
00000170: 8f77 8cc0 07df aa3d 081f 413e f371 abbc
00000180: 05a6 cf3e 1d5e f73e 5e9b c73d cea3 843e
00000190: 037f 0c3f 4935 fcbf 2bda ae3f 318b 9ebf
000001a0: dbb8 6340 865e 6fbb 8174 26be 3840 0a3d
000001b0: b9a2 833e 0f10 943e 2a9d 883e 096d 30be
000001c0: 16fd 733e ecff f3bf 0d8d bb3f 346c 72bf
000001d0: 1a56 7240 4899 dc3c 098a b93d 7c43 56bc
000001e0: 0772 103d db98 0ebd 4e0b b7bd 19d8 35be
000001f0: cc9c 6e3b f7b3 e2bf 4120 823f b039 73bf
00000200: c270 1840 2893 243e 2d1c cf3d 35a5 0c3e
00000210: bae3 373e 808a 8b3e a29d 1e3e d41b 403e
00000220: 7023 3dbd 4a65 9dbd ba5c 17be 7c6c cb3d
00000230: 3c86 323e 1088 973d 10c7 183d a8f6 58be
00000240: 0006 243b ecfa 2c3e ac8a 32be 8c02 323e
00000250: 64cd 65be e893 08be 5171 82be 5259 76be
00000260: e4c0 8d3e 6047 283c 10d5 0dbe c0a2 0ebc
00000270: e0a7 913e c20c 443e 1099 bcbc 8851 333e
00000280: 9897 353e accc 4b3e 0e60 143e 623a 3f3e
00000290: e358 1abe e026 bdbc a469 9f3d 71fe 86be
000002a0: a4f9 5d3e a6f4 7dbd a333 1d3a 3e3d 493e
000002b0: 02b1 0ebe f696 1040 42f5 30bf 65d5 94bf
000002c0: 3042 9340 e15c 003e 0b99 a53d 2a02 2cbd
000002d0: 9e70 423e 0221 47be 4767 8ebe e856 7bbe
000002e0: 109e 4e3d 2500 92be e0c1 413c 0cba 41be
000002f0: 66b2 213e 2861 c93d f2f4 1a3e a4ae 59be
00000300: ce45 493e fc4f 05be 203b 3cbc c83c 1ebd
00000310: 054f 36be c8f9 563e 50f1 403e e04e 763d
00000320: 9855 c93d ac1d 4fbe 3c67 93be 0c07 d5bd
00000330: dc1e cdba f333 80be c8fb e43d 1e51 e6bc
00000340: 7cf7 09be 1623 bd3f 6e89 67bf 5446 273f
00000350: b653 16c0 27c1 8dbd cf66 0d3e ab3d 383b
00000360: f5bf 85bd 1544 b4bd 76ab 9e3d 01b8 6bbe
00000370: 08aa f4bd 93d2 ca3f 3617 87bf dc10 b13f
00000380: 7de6 48c0 39f3 b43e 23c9 803d 4344 00bd
00000390: 1c75 8a3e 073a ea3e 7520 e2bd e463 273e
000003a0: ba0f 633e 4458 b5bf f7d6 783f e06b 37bf
000003b0: 4367 1b40 6286 dcbd e029 363e 7bea 603d
0.14910428 0.08241932 0.059928972 0.10361461 0.11057547 -1.9229356 1.5096022 -1.0685807
3.7914448 -0.15567918 0.095778 0.020572394 0.121219605 0.26541227 0.005404234 0.13348165
0.2816398 -0.17404066 -0.05278635 0.113637775 0.11387929 0.1811862 0.14748272 -0.20066161
-0.27380824 -0.03368005 -0.2736089 -0.17168573 -0.5064921 1.5564386 -0.8860315 1.0459374
-1.785863 0.1387204 0.10389841 0.24246447 -0.32475084 -0.23893937 0.2287145 0.060972065
-0.20173219 1.9474715 -1.1139699 0.6122272 -2.0213811 -0.21142778 -0.127769 0.04667804
0.016335743 -0.43133926 -0.04633806 0.06311986 -0.28889257 1.5872781 -0.8586601 0.9287613
-1.7958342 -0.22728154 0.12258453 0.07511897 0.37962505 0.37598878 -0.081905454 -0.13119298
0.22768943 -1.2057792 1.0253061 -0.5397457 1.7519174 0.16547915 -0.06742781 0.20188098
-0.40439814 0.012831003 -0.052368816 -0.2702777 -0.53167367 1.5303185 -1.1846732 0.93439656
-2.7313373 -0.03012107 0.22210298 0.06121722 -0.36241952 -0.08143335 0.07922309 0.040994447
-0.032710575 2.279379 -1.4170315 1.4509195 -4.3895946 0.0834332 0.18859494 -0.020928359
0.4055635 0.4831399 0.09746431 0.25906223 0.54881305 -1.9703761 1.366033 -1.2386228
3.5581577 -0.0036524846 -0.1625538 0.03375265 0.25710085 0.28918502 0.26682407 -0.17229094
0.23827013 -1.9062476 1.465242 -0.94696355 3.7865052 0.026928559 0.09059531 -0.013077613
0.035264995 -0.034813743 -0.08937703 -0.17758216 0.0036409376 -1.7711171 1.0166093 -0.950099
2.3818822 0.1607176 0.10112796 0.13734896 0.17957965 0.27254105 0.1548982 0.18760616
-0.046176374 -0.07685335 -0.14781466 0.09932801 0.17434019 0.07398999 0.037299216 -0.21187842
0.002502799 0.16892594 -0.17435712 0.17383784 -0.22441632 -0.13337672 -0.2547708 -0.2405751
0.27686226 0.010270923 -0.13850808 -0.008705795 0.2844839 0.19145492 -0.023022205 0.1751157
0.1773361 0.19902295 0.14489767 0.18674615 -0.1507297 -0.023089826 0.07783821 -0.26365998
0.21677262 -0.062000893 0.0005996769 0.19652268 -0.1393471 2.259214 -0.69124234 -1.1627623
4.6018295 0.1253543 0.08085831 -0.04199425 0.18988273 -0.19446185 -0.2781317 -0.24544871
0.05044371 -0.28515735 0.011826009 -0.18918628 0.1579071 0.09832984 0.15132502 -0.21258026
0.19655535 -0.13018793 -0.011488706 -0.038632184 -0.17803581 0.20993721 0.18842053 0.060133815
0.09830779 -0.20226163 -0.287897 -0.10401735 -0.0015649456 -0.25039634 0.11180836 -0.028114852
-0.13473314 1.4776332 -0.90444076 0.6534169 -2.3488593 -0.069216065 0.1380875 0.002811293
-0.065307535 -0.08802048 0.07747547 -0.2301941 -0.119464934 1.5845512 -1.0553958 1.383327
-3.139068 0.35341814 0.06288364 -0.0313151 0.27042472 0.45747396 -0.11041347 0.16346699
0.22173968 -1.4167562 0.9720301 -0.7164898 2.4281776 -0.10767819 0.17789412 0.054911118

layer1.bias f4 [20]
00000000: fdeb 453e 1cee e43d 6cfb 1cbe 73f4 033d
00000010: 8cc7 f1be b5f7 b2bd e725 12be 7031 cd3d
00000020: d788 293e 9565 7e3e bf3f 1f3d 6233 453e
00000030: 26a6 abbd eac5 013e 70fd 823e c412 cabd
00000040: 4081 b93b 1411 82be 7064 69be 0609 313e
0.19328304 0.11178228 -0.15330285 0.032215547 -0.47222555 -0.087386526 -0.14272271 0.10019195
0.16556107 0.24843438 0.038879152 0.19257882 -0.083813 0.12673154 0.25583982 -0.098668605
0.0056611598 -0.25403655 -0.2279222 0.17288598

layer2.weight f4 [1, 20]
00000000: 6857 e13e 1497 eebd c591 17be a2e7 a6bd
00000010: 0156 d9bc bb95 de3d 490f ccbd c9c5 08bf
00000020: 3c5a f63e 1aaa 273e 5d5e af3d c228 2cbe
00000030: 1066 38be 889b 83bd 441a 533f a0eb 393d
00000040: a06d 483c fb8f 3cbe c2c0 d7be 4cbd a13e
0.44011998 -0.116499096 -0.148017 -0.08149649 -0.026530268 0.108684026 -0.09963853 -0.53426796
0.48115718 0.16373482 0.0856292 -0.16812423 -0.18007684 -0.064261496 0.82461953 0.045390725
0.012233168 -0.18414299 -0.4213925 0.31589735

exp_avg f4 [20, 12]
00000000: 22ce e83b 510a 79bb 7d5d a3bc f183 98bb
00000010: 7666 023c d4dc c738 0e53 523b 5232 593b
00000020: a75b 20b7 bac0 1c3d 96b9 103e e66a 0e3f
00000030: 0000 0000 0000 0000 0000 0000 0000 0000
00000040: 0000 0000 0000 0000 0000 0000 0000 0000
00000050: 0000 0000 0000 0000 0000 0000 0000 0000
00000060: a9a8 1abb 297a a43a 7336 e33b a5ff cf3a
00000070: 666b 30bb 25cb aeb7 fb1b 8eba 9c43 91ba
00000080: 6ae7 5836 0da3 57bc 1b87 41bd b2af 3ebe
00000090: f75d afba 9709 453a c745 823b 7aa4 6c3a
000000a0: 692b c3ba 436b 4ab7 a988 16ba 0703 1aba
000000b0: 255f a135 ced7 adbb 1d89 d3bc b4f6 cabd
000000c0: 9502 d8b9 aa57 6939 7a09 b83a 9113 9839
000000d0: 516a fbb9 4161 69b6 fb07 43b9 cd4c 47b9
000000e0: 684d 1f35 046d 13bb 7aee 06bc 7dd8 03bd
000000f0: 6cab e53a 8157 71ba 1779 95bb 724a 97ba
00000100: 0f25 023b 0d77 8237 a0eb 553a 329d 5a3a
00000110: 5dd6 1db6 376b 243c 3321 103d 93e6 0e3e
00000120: cda0 cfba d341 5d3a 3bab 9b3b eb43 8c3a
00000130: ce43 edba f3c3 69b7 b658 3eba 0e92 42ba
00000140: a546 1236 1437 10bc a2d7 01bd da9e ffbd
00000150: a225 0cbc f479 943b 5790 c63c 711e bb3b
00000160: de77 1fbc 938a 9fb8 2253 81bb 0330 84bb
00000170: 596d 3d37 32fb 44bd b784 2fbe c64a 2dbf
00000180: 3ebe fc3b 32a0 85bb d266 aebc 5f2b a8bb
00000190: b7a4 0f3c b06b 8538 bf10 6a3b 78eb 6e3b
000001a0: e05b 2fb7 b08c 323d 4e54 1e3e 4d7e 1c3f
000001b0: f154 2d3b d6e2 b5ba 2386 e2bb 0e89 e2ba
000001c0: 0da8 433b e841 1838 fc04 a03a 3a3e a53a
000001d0: 1d5c 6eb6 4da4 783c 67c2 583d aed0 573e
000001e0: 8e4f b53a fb32 3eba 688a 67bb c02c 6eba
000001f0: 704c cd3a 5ffa 4d37 3734 293a 69e8 2c3a
00000200: eb8d f8b5 0c4e 023c e8ad e33c 6eec e13d
00000210: 0000 0000 0000 0000 0000 0000 0000 0000
00000220: 0000 0000 0000 0000 0000 0000 0000 0000
00000230: 0000 0000 0000 0000 0000 0000 0000 0000
00000240: 0000 0000 0000 0000 0000 0000 0000 0000
00000250: 0000 0000 0000 0000 0000 0000 0000 0000
00000260: 0000 0000 0000 0000 0000 0000 0000 0000
00000270: 0000 0000 0000 0000 0000 0000 0000 0000
00000280: 0000 0000 0000 0000 0000 0000 0000 0000
00000290: 0000 0000 0000 0000 0000 0000 0000 0000
000002a0: 7ae6 d138 06db d0b6 d363 a33b 88a3 b538
000002b0: 2854 f336 41fc 55b5 c384 c638 d35d ea38
000002c0: 2514 96b7 f62e 4f3b c709 3d3b c4f5 4e3c
000002d0: 0000 0000 0000 0000 0000 0000 0000 0000
000002e0: 0000 0000 0000 0000 0000 0000 0000 0000
000002f0: 0000 0000 0000 0000 0000 0000 0000 0000
00000300: 0000 0000 0000 0000 0000 0000 0000 0000
00000310: 0000 0000 0000 0000 0000 0000 0000 0000
00000320: 0000 0000 0000 0000 0000 0000 0000 0000
00000330: 28d5 40bb 9db7 cc3a cd94 0b3c 0550 013b
00000340: 5fc9 5bbb 3295 dab7 5c88 b1ba ca77 b5ba
00000350: 6016 8536 96fe 86bc f367 71bd b714 6ebe
00000360: f2aa ddbb c462 6a3b 8ca1 9c3c 6b0f 933b
00000370: fb88 fbbb bcdd 7bb8 a703 4dbb f089 51bb
00000380: 1cce 1637 68ac 1bbd 29a4 0abe 3e30 09bf
00000390: 048e a63b 6a90 2fbb decb 50bc d705 61bb
000003a0: bb48 bf3b 7730 3338 ddbe 1a3b 82fc 1d3b
000003b0: a5c4 e1b6 f36e e73c 9899 d13d 41b4 ce3e
0.007104651 -0.0038000534 -0.01994204 -0.0046544005 0.007958999 9.530192e-05 0.0032092961 0.0033141566
-9.558083e-06 0.038269736 0.14133295 0.55631864 0.0 0.0 0.0 0.0
0.0 0.0 0.0 0.0 0.0 0.0 0.0 0.0
-0.0023599064 0.0012548614 0.006933981 0.0015869035 -0.0026919483 -2.0837013e-05 -0.0010842079 -0.0011082771
3.232121e-06 -0.013161433 -0.047247987 -0.1862171 -0.0013379444 0.00075163826 0.0039756033 0.00090271945
-0.0014890257 -1.2065112e-05 -0.000574241 -0.0005875085 1.2023125e-06 -0.005305267 -0.025822217 -0.09910336
-0.00041200654 0.00022253269 0.001404091 0.00029006277 -0.00047953663 -3.4776315e-06 -0.00018599622 -0.0001900673
5.9344757e-07 -0.0022495398 -0.008235568 -0.03218888 0.0017522401 -0.00092064595 -0.004561554 -0.0011542572
0.0019858514 1.5552645e-05 0.0008160416 0.0008339464 -2.35196e-06 0.010035328 0.03518791 0.13955145
-0.0015840769 0.00084402895 0.004750637 0.0010701393 -0.0018101872 -1.3933505e-05 -0.0007261144 -0.00074222765
2.1796816e-06 -0.008802194 -0.031699784 -0.124814704 -0.008553894 0.0045311395 0.024238748 0.005710416
-0.009733168 -7.607522e-05 -0.003946678 -0.0040340438 1.1290737e-05 -0.04809112 -0.1714047 -0.6769222
0.0077131083 -0.0040779347 -0.021289263 -0.0051321234 0.008767298 6.3619926e-05 0.0035715548 0.0036456268
-1.0452204e-05 0.0435912 0.15461847 0.6113022 0.0026448334 -0.0013876806 -0.006912963 -0.0017283277
0.0029854805 3.6301004e-05 0.0012208517 0.0012607046 -3.551838e-06 0.015175891 0.05291977 0.21075699
0.0013832913 -0.00072555215 -0.00353303 -0.0009085648 0.0015663039 1.2277246e-05 0.0006454619 0.0006595911
-1.8518743e-06 0.007953178 0.027792886 0.110314235 0.0 0.0 0.0 0.0
0.0 0.0 0.0 0.0 0.0 0.0 0.0 0.0
0.0 0.0 0.0 0.0 0.0 0.0 0.0 0.0
0.0 0.0 0.0 0.0 0.0 0.0 0.0 0.0
0.0 0.0 0.0 0.0 0.0 0.0 0.0 0.0
0.00010008826 -6.2243807e-06 0.004986265 8.6612126e-05 7.2517614e-06 -7.971576e-07 9.4661045e-05 0.000111754656
-1.7890774e-05 0.0031613684 0.002884494 0.012631837 0.0 0.0 0.0 0.0
0.0 0.0 0.0 0.0 0.0 0.0 0.0 0.0
0.0 0.0 0.0 0.0 0.0 0.0 0.0 0.0
0.0 0.0 0.0 0.0 -0.0029423926 0.0015618686 0.008519364 0.0019731533
-0.0033536775 -2.60571e-05 -0.0013544667 -0.0013844904 3.9663137e-06 -0.016478818 -0.058937024 -0.2325009
-0.006764763 0.0035764435 0.01912 0.004487922 -0.0076762415 -6.004957e-05 -0.0031282695 -0.0031973086
8.988685e-06 -0.038006216 -0.13539185 -0.53589237 0.0050828476 -0.0026788958 -0.012743918 -0.0034335756
0.0058375276 4.2722062e-05 0.0023612299 0.0024106805 -6.728415e-06 0.028251147 0.10234374 0.40371898

exp_avg_sq f4 [20, 12]
00000000: 0a16 8039 7006 6d39 c0bf 6b3f d0eb 8939
00000010: 2aff 5a39 a828 5636 5c8e 063a ddf8 073a
00000020: 4835 2332 995b 6f3e 07f4 693e de42 2541
00000030: 0000 0000 0000 0000 0000 0000 0000 0000
00000040: 0000 0000 0000 0000 0000 0000 0000 0000
00000050: 0000 0000 0000 0000 0000 0000 0000 0000
00000060: 6865 e637 b79c d337 0dc6 d23d cd20 fa37
00000070: b105 c437 9731 0735 aa91 7038 71e3 7438
00000080: 8490 1f31 97f6 d63c 4acd d13c 16b1 943f
00000090: be41 0f37 5578 0037 3cce 0a3d f2cc 1c37
000000a0: eec6 e736 571c 3034 c570 9137 9242 9437
000000b0: 8cf8 1430 8e1c 003c 8eb9 fc3b fc49 b43e
000000c0: 7e92 b535 26de a535 9b7b a63b 2505 c635
000000d0: b1db 9935 ae91 d232 141c 3e36 547d 4136
000000e0: 7aa3 4f2f 0de3 a93a 07bc a43a 22ca 6a3d
000000f0: 6409 7637 d5a5 6237 36b1 613d 15f3 8537
00000100: 3c2d 5137 c0e2 8e34 cda2 0038 7bf8 0238
00000110: d31a cf30 8c44 663c 50b8 603c c528 1f3f
00000120: b08a 5c37 6864 4a37 2efb 493d cbb5 6f37
00000130: 6a93 3b37 cb7d 8034 e976 e637 6b97 ea37
00000140: 93b7 5230 f7f6 4d3c e4c0 483c a96c 0e3f
00000150: ff74 b939 f179 aa39 82d4 a93f e890 c939
00000160: 44c6 9d39 109a d736 13be 413a f43b 453a
00000170: ff02 4e32 fc39 ad3e fe08 a93e d78e 6f41
00000180: cd80 9639 3d64 8a39 d9e3 893f 619c a339
00000190: 82fa 7f39 6c4c af36 c74b 1d3a 0f1a 203a
000001a0: 1bde 4732 aba5 8c3e d045 893e 437e 4241
000001b0: c433 1138 2dfc 0538 ef53 053e 8f91 1c38
000001c0: 439b f737 7824 0d35 e934 9838 35f2 9938
000001d0: 69d4 b030 dc98 073d 0b65 043d 9b1f bb3f
000001e0: 4ffb 1e37 7e78 1237 fffb 113d d644 2d37
000001f0: 6a26 0737 d191 3734 8e53 a637 9357 a937
00000200: 9912 5630 90e8 143c 2a43 113c 0ad0 cd3e
00000210: 0000 0000 0000 0000 0000 0000 0000 0000
00000220: 0000 0000 0000 0000 0000 0000 0000 0000
00000230: 0000 0000 0000 0000 0000 0000 0000 0000
00000240: 0000 0000 0000 0000 0000 0000 0000 0000
00000250: 0000 0000 0000 0000 0000 0000 0000 0000
00000260: 0000 0000 0000 0000 0000 0000 0000 0000
00000270: 0000 0000 0000 0000 0000 0000 0000 0000
00000280: 0000 0000 0000 0000 0000 0000 0000 0000
00000290: 0000 0000 0000 0000 0000 0000 0000 0000
000002a0: 561c b933 c0ab 1133 fefc 0a39 d38e 9f33
000002b0: 0a94 5033 33e1 f031 b70e 0234 853b 0134
000002c0: 4eaa a331 aa87 a538 5755 cd38 0422 1d3b
000002d0: 0000 0000 0000 0000 0000 0000 0000 0000
000002e0: 0000 0000 0000 0000 0000 0000 0000 0000
000002f0: 0000 0000 0000 0000 0000 0000 0000 0000
00000300: 0000 0000 0000 0000 0000 0000 0000 0000
00000310: 0000 0000 0000 0000 0000 0000 0000 0000
00000320: 0000 0000 0000 0000 0000 0000 0000 0000
00000330: 34fb 3838 fab5 2938 50bd 293e 4427 4938
00000340: 2a4b 1d38 29f8 5535 1351 c138 9ace c438
00000350: c60d 7931 2868 2c3d c4a6 283d 5601 ef3f
00000360: ca61 6739 baae 5439 04f7 533f a66b 7b39
00000370: 64f7 4439 1412 8636 91ba f139 ce13 f639
00000380: 25e9 2332 ea16 583e a4ed 523e 4672 1541
00000390: 45b9 0239 055a ec38 8760 de3e 3e73 0c39
000003a0: 015d dd38 c5b2 1736 adb8 8639 92fa 8839
000003b0: 3cf2 0c32 b94f ec3d bd6b ee3d e081 a640
0.00024430483 0.0002260448 0.9208946 0.0002630637 0.00020885156 3.191215e-06 0.00051329075 0.0005186925
9.4999635e-09 0.23374785 0.22846995 10.328825 0.0 0.0 0.0 0.0
0.0 0.0 0.0 0.0 0.0 0.0 0.0 0.0
2.7465358e-05 2.5226136e-05 0.102916814 2.9817596e-05 2.3367671e-05 5.036358e-07 5.735612e-05 5.8385955e-05
2.3219693e-09 0.02624063 0.025610585 1.1616542 8.538771e-06 7.6574115e-06 0.033888087 9.346042e-06
6.907495e-06 1.6401587e-07 1.733786e-05 1.7673974e-05 5.419529e-10 0.007819308 0.0077125495 0.35212696
1.3528186e-06 1.2358112e-06 0.005080653 1.4753647e-06 1.1463327e-06 2.4513465e-08 2.832855e-06 2.8832192e-06
1.8884619e-10 0.0012961343 0.0012568244 0.057321675 1.4664929e-05 1.35092605e-05 0.055100642 1.596803e-05
1.2467903e-05 2.6614543e-07 3.0669198e-05 3.122583e-05 1.5068856e-09 0.014054429 0.0137158185 0.62171584
1.3145313e-05 1.2063516e-05 0.04931181 1.4287837e-05 1.1180391e-05 2.3933384e-07 2.7473508e-05 2.7965483e-05
7.665843e-10 0.012571088 0.01225302 0.5563455 0.0003537312 0.0003251578 1.3267977 0.0003844567
0.00030093093 6.4254345e-06 0.0007390689 0.00075238873 1.1991459e-08 0.338333 0.33014673 14.972373
0.00028706194 0.00026396094 1.0772659 0.00031206294 0.00024412017 5.224303e-06 0.00060003664 0.00061073987
1.16338255e-08 0.27470145 0.26811075 12.155826 3.4618904e-05 3.1944528e-05 0.130203 3.732886e-05
2.9516994e-05 5.257966e-07 7.25778e-05 7.340723e-05 1.2866056e-09 0.033104762 0.032322925 1.461902
9.476046e-06 8.730332e-06 0.035640713 1.0327631e-05 8.055571e-06 1.7096251e-07 1.982765e-05 2.018715e-05
7.7879175e-10 0.00908865 0.008866111 0.40197784 0.0 0.0 0.0 0.0
0.0 0.0 0.0 0.0 0.0 0.0 0.0 0.0
0.0 0.0 0.0 0.0 0.0 0.0 0.0 0.0
0.0 0.0 0.0 0.0 0.0 0.0 0.0 0.0
0.0 0.0 0.0 0.0 0.0 0.0 0.0 0.0
8.619888e-08 3.391665e-08 0.00013254953 7.429994e-08 4.8563415e-08 7.0105215e-09 1.2112547e-07 1.2035714e-07
4.7632858e-09 7.8930825e-05 9.7910575e-05 0.0023976574 0.0 0.0 0.0 0.0
0.0 0.0 0.0 0.0 0.0 0.0 0.0 0.0
0.0 0.0 0.0 0.0 0.0 0.0 0.0 0.0
0.0 0.0 0.0 0.0 4.410297e-05 4.046222e-05 0.16576123 4.7958703e-05
3.750172e-05 7.9709804e-07 9.2180584e-05 9.384491e-05 3.6242098e-09 0.04209152 0.041174665 1.8672283
0.00022066306 0.00020282986 0.8279879 0.00023977328 0.00018784177 3.9956158e-06 0.00046106105 0.00046935532
9.54086e-09 0.21102491 0.20598465 9.340399 0.00012466784 0.000112701244 0.4343302 0.00013394371
0.000105554245 2.260481e-06 0.00025696066 0.0002612663 8.20415e-09 0.115386434 0.11641643 5.203354

exp_avg f4 [20]
00000000: f491 583b 0000 0000 28d7 90ba 56b2 19ba
00000010: 7fad 46b9 5bff 593a c7ff 41ba 4cd1 83bb
00000020: 193c 6e3b 0ac7 a43a 216c 2c3a 0000 0000
00000030: 0000 0000 0000 0000 c9d8 c438 0000 0000
00000040: 0000 0000 b5f2 b4ba 21f3 50bb 9e8b 1d3b
0.003304598 0.0 -0.001105045 -0.0005863061 -0.00018947384 0.0008315944 -0.00074004795 -0.004022753
0.003635174 0.0012571525 0.0006577392 0.0 0.0 0.0 9.386388e-05 0.0
0.0 -0.0013805242 -0.0031883197 0.0024039517

exp_avg_sq f4 [20]
00000000: 0611 083a 0000 0000 3d0f 7538 405e 9437
00000010: 69ad 4136 650f 0338 e4c3 ea37 575e 453a
00000020: 0c36 203a b50d 9a38 3276 a937 0000 0000
00000030: 0000 0000 0000 0000 7343 0534 0000 0000
00000040: 0000 0000 e3f3 c438 643f f639 4a13 8939
0.0005190525 0.0 5.8426744e-05 1.7686863e-05 2.886018e-06 3.124717e-05 2.7986192e-05 0.00075290113
0.0006111569 7.3458454e-05 2.0201409e-05 0.0 0.0 0.0 1.2411128e-07 0.0
0.0 9.391436e-05 0.00046968006 0.00026145048

exp_avg f4 [1, 20]
00000000: 8873 4a3d 0000 0000 5e6d b43e 4e3a aabc
00000010: af4a e03d 0dab 883e b06d 053e fe7d fd3c
00000020: 192f 5ab9 4cbd 973c e49c 6c3e 0000 0000
00000030: 0000 0000 0000 0000 5de0 cab8 0000 0000
00000040: 0000 0000 6e54 fb3c f652 f73b da61 053e
0.049426585 0.0 0.3523969 -0.020779755 0.10951745 0.26693 0.13030124 0.030943867
-0.00020807645 0.018522881 0.23106724 0.0 0.0 0.0 -9.6739015e-05 0.0
0.0 0.030679908 0.0075477315 0.13025609

exp_avg_sq f4 [1, 20]
00000000: 59ea 823d 0000 0000 0d45 0d40 8f1b 403e
00000010: 1dea 303e de67 0a40 5aa2 8e3e f5e6 b53d
00000020: be39 e23d 83bc df3e cc02 a43f 0000 0000
00000030: 0000 0000 0000 0000 7021 1636 0000 0000
00000040: 0000 0000 5be4 cb3d cc77 0e3e 9718 c73d
0.063923545 0.0 2.2073395 0.18760513 0.17276807 2.1625896 0.2785824 0.08881942
0.1104617 0.4369851 1.2813354 0.0 0.0 0.0 2.2371205e-06 0.0
0.0 0.09955665 0.13912886 0.09721487
